pred_model.pt (torch, 3759 bytes, 6 tensors)

linear1.weight f4 [16, 13]
0	0xbe27dd9c	-0.16393131
1	0x3e13c6da	0.14431325
2	0x403a5a6d	2.9117692
3	0x405bdf81	3.4355166
4	0x3e1f6fc9	0.15569986
5	0xbfa99eb0	-1.3251553
6	0x3e3ae30a	0.18250671
7	0x3e3f9094	0.18707496
8	0xbe0e1aa2	-0.13877347
9	0xbfe70f69	-1.8051578
10	0x3df56d78	0.1198377
11	0xbdf60376	-0.12012379
12	0xbfe37d3d	-1.7772595
13	0xbfc5483f	-1.5412673
14	0xbfe6fa23	-1.8045086
15	0x3fbf44cb	1.4942869
16	0x3fb83974	1.4392533
17	0xbfaaed6f	-1.3353709
18	0xba26b000	-0.00063586235
19	0x3d32d828	0.043663174
20	0x3e2c4ebe	0.16826913
21	0xbe2eff83	-0.17089657
22	0x3d827b68	0.06371194
23	0x3e5ebe56	0.21752295
24	0xbe823149	-0.25428227
25	0xbfc93e3c	-1.5722117
26	0xbf922d66	-1.1420105
27	0xbfd69c26	-1.6766403
28	0x3f9ee092	1.2412283
29	0x3fbe6759	1.4875289
30	0xbf97076d	-1.1799141
31	0x3df67f24	0.12035969
32	0xbf8b3f83	-1.0878757
33	0xbfced81a	-1.6159699
34	0xbfc1b1c2	-1.5132372
35	0xbe1d1a4e	-0.15342066
36	0xbf9438d1	-1.1579839
37	0xbfb87f2f	-1.4413813
38	0xbfd071d4	-1.6284738
39	0xbfdfe970	-1.7493114
40	0xbfdf8e5b	-1.7465318
41	0x3fb6a6ee	1.4269693
42	0x3fbcf3dd	1.4761921
43	0xbfcf66e6	-1.6203277
44	0xbdc56dda	-0.09640093
45	0x3e5148a6	0.2043787
46	0xbe54f8ce	-0.20798036
47	0xbfbe2a56	-1.485667
48	0xbd80a792	-0.062819615
49	0xbe09b552	-0.13448074
50	0xbe6caee0	-0.23113585
51	0xbfbd1a80	-1.4773712
52	0xbdcf646f	-0.10126578
53	0xbf0ba9ec	-0.54556155
54	0x3ec33587	0.38126776
55	0x3cf48b07	0.02985145
56	0xbe259f1a	-0.16173974
57	0x3e8b38df	0.27191827
58	0x3ddb1a00	0.106983185
59	0x3d426d08	0.04746726
60	0xbee2de32	-0.44310147
61	0x3da02594	0.078196675
62	0xbe354711	-0.17702891
63	0xbedbf6f6	-0.42961854
64	0xbe44e26c	-0.19226998
65	0xc0bb784d	-5.858435
66	0xc0b70d4c	-5.720373
67	0xc081c0d7	-4.05479
68	0x40b6137f	5.68988
69	0xc0e62e45	-7.193148
70	0x3e8c29ab	0.2737554
71	0xbe55e008	-0.20886242
72	0x3e229d68	0.15880358
73	0xbf9d5ecc	-1.2294555
74	0x3e3312b0	0.17487597
75	0x40ae162e	5.4402075
76	0x3fed0376	1.8516681
77	0x3ffe7f40	1.9882584
78	0xc116e803	-9.4316435
79	0xc105d965	-8.365575
80	0x411b39d5	9.701619
81	0x408c78a9	4.389729
82	0xbfb8bc9a	-1.4432557
83	0xbccc3f40	-0.024932504
84	0x3e32c892	0.17459324
85	0x3e727b12	0.2367976
86	0xc04cff54	-3.203084
87	0x3e098996	0.13431391
88	0x3f842cdc	1.032619
89	0xc019c222	-2.402474
90	0x400d066a	2.2035165
91	0x4080acfe	4.021117
92	0x3eb91b4f	0.36153647
93	0x40fd78e8	7.921009
94	0x40c30951	6.0948873
95	0xc1df8288	-27.938736
96	0xbe537c48	-0.20652878
97	0xbe3f68a4	-0.18692261
98	0xbe18ad85	-0.14909942
99	0xbf591145	-0.84791976
100	0xc11d0930	-9.814743
101	0x4193a0b3	18.453466
102	0xc291e283	-72.942406
103	0xc01b5423	-2.4270103
104	0xbfddef49	-1.7338649
105	0xbfdd4ff2	-1.7290022
106	0xbf967324	-1.1753888
107	0xbf8ef045	-1.1167074
108	0xc0022f09	-2.0341208
109	0x3e25a054	0.16174442
110	0xbd07280c	-0.032997176
111	0xbcbff4e0	-0.023432195
112	0xbe8e2e0b	-0.27769503
113	0x3d8b500c	0.06802377
114	0xbcaa7c52	-0.020811234
115	0xbdda4758	-0.10658139
116	0xbed6ff1d	-0.4199151
117	0xbf0806fc	-0.5313566
118	0xbe70c92d	-0.23514242
119	0x3e942aff	0.28939053
120	0x3e2203f7	0.15821825
121	0xbe4416a9	-0.19149269
122	0x3d0c9d70	0.03432983
123	0x3e6e91f2	0.23297861
124	0x3e2209b6	0.15824017
125	0xbf0fc37d	-0.56157666
126	0x3e2c670c	0.16836184
127	0xbd9d756b	-0.07688411
128	0xbec8ff70	-0.39257383
129	0xbe5d1816	-0.2159122
130	0xbe69f8c7	-0.22848807
131	0xbe37b231	-0.17939068
132	0xbd27dc10	-0.040981352
133	0xbe2cf78a	-0.16891304
134	0xbe43bebe	-0.19115731
135	0xbe183ce1	-0.14866973
136	0x3dd8127c	0.105504006
137	0xbe24fa25	-0.16111048
138	0x3e5db918	0.21652639
139	0xbdd79798	-0.10526961
140	0xbdc09e36	-0.09405176
141	0x3e25267a	0.16127959
142	0xbe4e455c	-0.20143646
143	0x3feb5269	1.8384525
144	0x3fc18623	1.511906
145	0xbfae5c0d	-1.3621842
146	0x3fea73ae	1.8316553
147	0x3fd7e5ae	1.6866968
148	0xbfd0842d	-1.6290337
149	0x3e84f01b	0.25964436
150	0xbe50e714	-0.2040065
151	0xbdde8832	-0.10865821
152	0xbfe1a2b4	-1.7627778
153	0xbe86cd20	-0.26328373
154	0xbe7934dc	-0.2433657
155	0xbfe8f383	-1.8199314
156	0xbec3f070	-0.38269377
157	0xbf210554	-0.62898755
158	0x3e95d5b0	0.29264593
159	0x405e5847	3.474138
160	0xbedade12	-0.4274755
161	0x3e7ff3aa	0.24995294
162	0x3c6f6ee0	0.014613837
163	0xbe33c136	-0.17554173
164	0xbe840d7c	-0.25791538
165	0xc00aa7b4	-2.1664858
166	0xbe9bc6cb	-0.30425104
167	0x3cc3218c	0.023819707
168	0xbe8af8d4	-0.27142966
169	0xbfd119d6	-1.633601
170	0xbfbbb260	-1.4663811
171	0x3fb440d3	1.4082283
172	0x3fccf95e	1.6013601
173	0xbfa759fc	-1.3074336
174	0xbe44086a	-0.19143835
175	0xbd4c0fb0	-0.04981965
176	0x3e06c774	0.13162023
177	0xbfa1fe77	-1.2655782
178	0xbdff69b4	-0.12471333
179	0xbfeda740	-1.8566666
180	0xbfdac685	-1.7091833
181	0xbfb4bce8	-1.412015
182	0xbe26870f	-0.16262458
183	0xbe55b438	-0.20869529
184	0xbdf017c8	-0.11723286
185	0xbd148314	-0.03625782
186	0x3e7ee292	0.24891117
187	0x3d9fa138	0.07794422
188	0xbd7c8368	-0.061648756
189	0xbd4abc48	-0.049495965
190	0xbd0e1ff0	-0.034698427
191	0x3e794a8e	0.24344847
192	0x3e35078a	0.17678657
193	0xbce4e358	-0.027940437
194	0xbb220b80	-0.0024726093
195	0xbfdb9a1a	-1.7156403
196	0xbfba8b82	-1.4573824
197	0xbf8adcfa	-1.0848687
198	0xbfa41f92	-1.2822134
199	0xbfbc62f7	-1.4717702
200	0xbd460778	-0.048346967
201	0xbdca6fd6	-0.09884612
202	0x3dd4b068	0.10385209
203	0x3e028088	0.12744343
204	0xbe89fcfd	-0.26950827
205	0xbe922171	-0.2854114
206	0x3e97e990	0.29670382
207	0xbe2075dd	-0.15669961

linear1.bias f4 [16]
0	0x3d60a124	0.054841176
1	0xbfce709a	-1.6128113
2	0xbfc5bf46	-1.5448997
3	0xbfe95d45	-1.8231589
4	0xbdba1382	-0.09085752
5	0xc0a04f9c	-5.009718
6	0xc1a5ce6e	-20.725796
7	0x422259da	40.587746
8	0xbfedca77	-1.8577412
9	0xbe73b848	-0.23800766
10	0xbe2bdf16	-0.1678432
11	0x3fc5de1e	1.545841
12	0xbe5290d8	-0.20563066
13	0xbfcc2a77	-1.5950459
14	0xbda3b4ac	-0.07993445
15	0xbfdecdc8	-1.740655

linear2.weight f4 [8, 16]
0	0xbfac0938	-1.3440313
1	0x3e74ebdc	0.23918098
2	0xbdedc67c	-0.116101235
3	0x3e26eaa2	0.16300443
4	0xbe6b82f0	-0.22999167
5	0xbef6c129	-0.48194245
6	0xbee9f11f	-0.45691773
7	0xbe5c9a15	-0.21543153
8	0xbce8ba72	-0.028409217
9	0xbe294082	-0.16528514
10	0xbda26ed4	-0.07931295
11	0xbe7c5100	-0.24640274
12	0xbd86ebd9	-0.06587953
13	0x3df0730c	0.117406934
14	0xbe5348fe	-0.20633313
15	0xbe0fe128	-0.14050734
16	0xbd761e30	-0.060087383
17	0xbe5aa496	-0.21351847
18	0xbfbfa275	-1.4971453
19	0xbe55cdb8	-0.20879257
20	0xbd664c58	-0.05622515
21	0xbe3340da	-0.17505208
22	0xbfa40fbd	-1.2817303
23	0xbfd1fb45	-1.6404806
24	0xbc3a2440	-0.011361182
25	0xbdbc0dbc	-0.09182307
26	0xbd6fe5c8	-0.058568746
27	0xbd93d520	-0.07218385
28	0xbe023e38	-0.12719047
29	0xbcc70cd0	-0.024298102
30	0xbe4301dc	-0.19043678
31	0xbe28d398	-0.16486967
32	0xbd5a84b0	-0.053349197
33	0x3dd724f0	0.10505092
34	0xbfc9b4b5	-1.5758272
35	0x3db8eea4	0.09029892
36	0xbe40efbe	-0.18841454
37	0xbd7846f0	-0.060614526
38	0xbdc30cc8	-0.09523922
39	0xbe336b8c	-0.17521495
40	0x3d30a498	0.04312572
41	0x3d128200	0.03576851
42	0xbe4daf74	-0.20086461
43	0xbfc70641	-1.5548784
44	0xbdfa94c8	-0.12235409
45	0xbe79b368	-0.24384844
46	0xbd9962dc	-0.07489559
47	0xbe5b7ab6	-0.2143353
48	0xbd484ca0	-0.0489012
49	0xbe39e7be	-0.18154809
50	0xbfc90cbc	-1.5707011
51	0xbfc1b44e	-1.513315
52	0x3f036a62	0.513342
53	0xbe0604ae	-0.13087723
54	0xbe974e68	-0.29552007
55	0xbfdbd58e	-1.7174547
56	0x3ee5d6f3	0.44890556
57	0x3f0b8e7f	0.54514307
58	0x3e70a43c	0.2350015
59	0xc0022f67	-2.0341432
60	0xbf9a2a3e	-1.2044141
61	0x3f987ba6	1.1912735
62	0x3d90bfb0	0.070678115
63	0xbcc45f43	-0.023971206
64	0x3fe3624f	1.7764376
65	0xbe074cde	-0.13212916
66	0xbdda1fac	-0.10650572
67	0xbd437178	-0.047715634
68	0xbe2c74ba	-0.16841403
69	0x3db6cf58	0.089262664
70	0xbe6f80f8	-0.23389041
71	0xbfc77776	-1.5583332
72	0x3dd4d404	0.10392001
73	0x3e54a038	0.20764244
74	0x3e150d26	0.14555797
75	0xbfbedacf	-1.4910525
76	0xbfbc418c	-1.4707503
77	0x3dd7a844	0.10530141
78	0xbe788172	-0.2426813
79	0x3d4a6188	0.04940942
80	0xbbea6f40	-0.0071543753
81	0x3e31545a	0.17317334
82	0xbfc7ab3f	-1.5599135
83	0x3c2724e0	0.010201663
84	0xbd965406	-0.07340245
85	0xbda3d974	-0.0800046
86	0xbf026153	-0.50929755
87	0xbea57799	-0.32317808
88	0xbedf78ba	-0.43646795
89	0xbde6839b	-0.112555705
90	0xbc625440	-0.013814032
91	0xbfcab5e7	-1.5836762
92	0xbf022311	-0.5083476
93	0xbe799164	-0.24371868
94	0x3de1a144	0.11017087
95	0xbe6de3d2	-0.23231438
96	0xbbf6a480	-0.007526934
97	0xbcea64a0	-0.028612435
98	0xbfab28a4	-1.3371778
99	0x3e21e248	0.15808976
100	0xbeed0d25	-0.4629909
101	0xbe9ff653	-0.31242618
102	0xbd562762	-0.052283652
103	0xbe61e972	-0.22061709
104	0xbe986350	-0.2976327
105	0xbe90aea2	-0.28258234
106	0xbb622e80	-0.003451258
107	0xbfc2819e	-1.5195806
108	0xbeaf43e6	-0.3423149
109	0xbdf4eb8c	-0.119589895
110	0xbe2e0b10	-0.16996408
111	0xbefb4eaf	-0.49083468
112	0xc03f871c	-2.9926214
113	0x3fc87033	1.565924
114	0xbfad0ec5	-1.3520132
115	0xbfb27c49	-1.3944179
116	0x3e772165	0.24133833
117	0x3d873d5d	0.06603501
118	0xbdb4ed27	-0.08834296
119	0xbfc609a6	-1.5471694
120	0xbfacf317	-1.3511685
121	0x3ea001b0	0.31251287
122	0x3e39cb52	0.18143967
123	0xbfeae928	-1.8352404
124	0xbfcb6b2b	-1.589208
125	0x3fc3f4ba	1.530906
126	0x3e7dccd0	0.24785161
127	0xbfbe7dc9	-1.4882137

linear2.bias f4 [8]
0	0xbfd2bf44	-1.646462
1	0xc0331592	-2.7981915
2	0xc04d7880	-3.2104797
3	0xc0ab6fbf	-5.357391
4	0xc08d0aa8	-4.407551
5	0xc0676053	-3.6152542
6	0xc04c8f1d	-3.196235
7	0xc0149469	-2.3215582

linear3.weight f4 [4, 8]
0	0x3e4477da	0.19186345
1	0xbfea81b6	-1.8320835
2	0xbdb9085c	-0.090347975
3	0xbf06986e	-0.5257634
4	0x3eaf86af	0.34282443
5	0xbf9d26be	-1.2277448
6	0xbf911602	-1.1334841
7	0xc1b585da	-22.690357
8	0xbd6dc658	-0.058050483
9	0xbe5e2b52	-0.21696213
10	0x3e84cb4b	0.2593635
11	0xbe6d9fcb	-0.23205487
12	0xbe0fc989	-0.14041723
13	0xbfafd4a9	-1.3736774
14	0xbfa4de19	-1.2880279
15	0xc1aafa66	-21.372265
16	0x3c5c88b4	0.013460327
17	0xbfe18d6f	-1.7621287
18	0xbe63cf1b	-0.22246973
19	0xc0448f35	-3.0712407
20	0xbd1ec3b8	-0.03876087
21	0xbfce44ab	-1.6114706
22	0xc03d5f2f	-2.9589345
23	0xc1e4039e	-28.501766
24	0x3fc58af7	1.5433034
25	0x3dcd68fc	0.1002979
26	0xbfa0259b	-1.2511476
27	0xbfd3a55e	-1.6534841
28	0x3f01c388	0.5068898
29	0xbf90872b	-1.129125
30	0xbf8867c0	-1.0656662
31	0xc1aa0e8a	-21.2571

linear3.bias f4 [4]
0	0x43ffe39e	511.77826
1	0x43fb91dd	503.13956
2	0x4400cf10	515.23535
3	0x43fe16da	508.17853
