prey_model.pt (torch, 3247 bytes, 6 tensors)

linear1.weight f4 [16, 5]
000000 59 b3 a4 bf 5f d3 a9 bf 72 9f 11 c0 b3 df a5 bf
       -1.2867233 -1.326763 -2.2753568 -1.2958893
000010 50 d6 bd bf 44 f2 c8 be 33 6e a9 be a0 1c 96 bc
       -1.4831028 -0.39247334 -0.33091888 -0.018324196
000020 26 88 96 be 58 5b 28 be 85 16 a2 bf 92 f9 e4 bf
       -0.29400748 -0.16441095 -1.2663122 -1.7888663
000030 7e c7 9c bf d0 65 e3 bf 4d 4c d1 bf 46 77 1d c0
       -1.224838 -1.7765446 -1.635141 -2.4604049
000040 95 5c af bf 9a ca a4 bf bf 24 b1 bf 61 9e 25 c0
       -1.3700129 -1.2874329 -1.3839339 -2.5877917
000050 6b fe 15 be 9d 20 44 be ed 70 5b bb c6 c7 e3 be
       -0.14647834 -0.19153066 -0.0033484057 -0.44488353
000060 ff 88 a1 bd 27 c7 d5 bf 10 34 07 c0 43 b3 a8 bf
       -0.07887458 -1.6701401 -2.1125526 -1.3179706
000070 cb 08 f2 bf 5a 37 ea bf 85 d9 fb bf 3e 90 de bf
       -1.8908933 -1.8298142 -1.9675757 -1.7387769
000080 ce 85 80 bf b1 ef d8 bf c6 62 12 c0 00 8c 9b bc
       -1.0040834 -1.6948148 -2.2872787 -0.018987656
000090 be 4d b9 be 70 33 cc be f2 f2 a5 be ee ef 8a 3e
       -0.36192125 -0.39882994 -0.32411915 0.27136177
0000a0 2d 69 f5 bf d8 10 ca bf 56 cd 66 bf f9 57 de bf
       -1.9172722 -1.578639 -0.9015707 -1.7370597
0000b0 e8 af 0c c0 49 bb 12 bf c8 a1 df bd 3f 6c bb 3d
       -2.1982365 -0.57317024 -0.10919529 0.09151506
0000c0 12 4d bd bd 6e b5 fb be bd e2 30 bf 0b 9b af bf
       -0.092432156 -0.49161857 -0.69095975 -1.371919
0000d0 81 69 c9 bf 45 ab 54 bf 4e ec 54 bf 53 88 94 bf
       -1.5735322 -0.83073837 -0.8317307 -1.1604103
0000e0 8c ec d2 bf a4 29 83 bf 5f 7d c1 bf af a6 cc bf
       -1.6478438 -1.0247083 -1.5116385 -1.5988368
0000f0 4f a8 c7 bf 78 0b ee bf 97 f5 3d bf 80 b1 d7 bf
       -1.5598239 -1.859725 -0.74202865 -1.6851044
000100 4c 59 a8 bf 5c 24 9a bf 07 95 ef bf 63 98 80 bf
       -1.3152251 -1.2042346 -1.8717355 -1.0046505
000110 c7 00 eb bf 3e bc 93 bf e7 e6 db bf 04 16 b8 bf
       -1.8359612 -1.1541822 -1.7179841 -1.4381719
000120 4f 72 a0 3f 26 45 d4 bf 48 db ae bf 36 ff c3 bf
       1.2534884 -1.6583602 -1.3660669 -1.5312259
000130 f2 2e e9 bf ae e9 8b bf db 01 ed bf 26 dc e5 bf
       -1.8217452 -1.0930688 -1.8516191 -1.7957809

linear1.bias f4 [16]
000000 39 9a a1 bf fc 9d a4 3e f7 90 d4 bf 84 44 e0 bf
       -1.262519 0.32151783 -1.660674 -1.7520909
000010 b6 fc 0d be 5c f8 0e c0 5c 7f 04 c0 d9 c0 e1 be
       -0.13865933 -2.2339087 -2.0702734 -0.44092444
000020 f9 bc cd bf 64 2a f9 3d ca 64 8f bf 30 a3 8f bf
       -1.6073295 0.121662885 -1.1202633 -1.1221676
000030 bc a4 ac bf e8 0d bb bf 52 11 f7 bf 39 6a bb bf
       -1.3487773 -1.4613619 -1.9302161 -1.4641792

linear2.weight f4 [8, 16]
000000 f9 64 75 bf 40 cc f5 bb de ed b2 bf 68 7a 23 be
       -0.958572 -0.007501155 -1.3978841 -0.15964663
000010 20 f3 34 bc 14 5a 8e bd 74 6d 63 be a8 04 e1 bd
       -0.011044294 -0.06950775 -0.22209722 -0.10987216
000020 e0 f9 f6 3c 90 91 38 3d 27 54 c2 bf 5c 34 b2 3d
       0.030148447 0.045060694 -1.5181931 0.08701393
000030 96 7a 75 be 90 94 22 bd 00 32 e2 3c b1 e3 b0 bf
       -0.23972544 -0.03969246 0.027611732 -1.3819486
000040 84 39 86 bd 0c 40 71 3e 99 53 d7 3f fd e7 db bd
       -0.06553939 0.23559588 1.6822387 -0.10737608
000050 e4 81 0f be b0 61 fe bd b6 22 3a 3e 4c b2 a6 3d
       -0.14014393 -0.12420976 0.18177304 0.08139476
000060 c8 3c db 3d 6c 5e ac bd 50 0a 6b bd e0 23 f6 3c
       0.107049525 -0.08416447 -0.05738288 0.030046403
000070 66 40 17 be 30 8b 9f bf 2c f7 16 3e c2 6c 9b bf
       -0.1477066 -1.2464352 0.14742726 -1.2142565
000080 b8 eb 00 be 58 7f 78 3d d8 9f c2 bd d0 51 1d bd
       -0.1258992 0.06066832 -0.09503144 -0.0384081
000090 4a 0d 33 3e 5e cd 6b 3e 52 0f db 3f 94 50 3e be
       0.17485538 0.2302756 1.711405 -0.18585426
0000a0 8d 37 bc 3f fa 8d 65 3e c4 c8 b5 bd 44 44 c8 3d
       1.4704453 0.22417441 -0.08876184 0.09778646
0000b0 14 cd 9b bf 38 59 c7 bf 78 84 6a bd a8 f7 1d 3d
       -1.217196 -1.5574102 -0.05725524 0.03856626
0000c0 38 02 c8 bf 2c 2c ca bd 90 fb 40 bd 44 d7 bd bd
       -1.5625677 -0.09871706 -0.04711491 -0.09269574
0000d0 30 a0 fa bc 7e 5f 25 3e 60 69 b9 3f d6 57 55 3e
       -0.030593961 0.16149709 1.4485283 0.20834288
0000e0 f8 c4 b6 3f 80 cd a5 3b 5e d2 af bf da f5 a1 bf
       1.427886 0.005059898 -1.3736074 -1.2653153
0000f0 6d 66 98 bf ec 0e 08 be 2e af 20 3e 4f d2 de 3f
       -1.1906258 -0.13286942 0.15691826 1.7407931
000100 b2 58 dd be 48 89 2e 3e f0 2a d3 3c d1 6a 9f bf
       -0.43231732 0.17044556 0.02577731 -1.2454473
000110 80 39 7f be 16 54 1d be 76 84 ff bd a2 e3 1b 3e
       -0.24924278 -0.15364107 -0.12476437 0.15223554
000120 af 62 63 be 75 40 55 bd 3b a1 d1 be 78 d1 12 bd
       -0.22205614 -0.052063424 -0.40943322 -0.035844296
000130 05 be 92 bd 54 32 bf bf af 69 b4 bf e0 04 bd bc
       -0.071651496 -1.4937234 -1.4094752 -0.023073614
000140 3a 38 64 be 22 88 00 3e 23 66 9f bf b1 dc 5a bf
       -0.22287074 0.1255193 -1.2453045 -0.85493
000150 fc 79 41 be 7d 98 c1 3f b7 7b ba bf 94 62 4b 3e
       -0.1889419 1.5124661 -1.4569005 0.19861823
000160 42 41 ba bf 28 78 6a bd ee f6 09 be ae d9 58 be
       -1.4551165 -0.057243496 -0.13473102 -0.21176788
000170 98 18 d1 3f bc 97 34 be 7c 86 98 3d c9 17 c0 bf
       1.633563 -0.17636007 0.07447526 -1.5007259
000180 af 81 ae be f4 57 dd bd b6 55 51 be 2c 48 e4 bd
       -0.34083316 -0.10807791 -0.20442852 -0.11146578
000190 54 82 c5 be 35 9d c1 be 68 c1 09 bf f0 d2 57 bd
       -0.38575995 -0.37815252 -0.5381074 -0.0526914
0001a0 5d 6c a7 be b5 7e b0 be 5f d7 1e be 92 46 0d be
       -0.32699862 -0.3447167 -0.15511845 -0.13796452
0001b0 9b 08 85 bd de 3a b7 bf a4 7c 05 3e b9 96 c4 bf
       -0.06495782 -1.431484 0.13035828 -1.5358497
0001c0 48 98 a9 bf 20 c5 05 bc ac 61 b2 bf d8 54 49 be
       -1.3249598 -0.008164674 -1.3936057 -0.19661272
0001d0 36 4f 4e be 80 a9 01 bc e0 03 ce 3c 0c 5b a2 3d
       -0.20147404 -0.007913947 0.025148332 0.07927522
0001e0 32 6e 39 be 78 73 3d be 37 63 b7 be 10 3b 6c 3e
       -0.18108442 -0.18501079 -0.35817882 0.23069406
0001f0 6e 4f 6f be 00 00 84 36 04 ae 00 3e f4 d7 38 be
       -0.23370144 3.9339066e-06 0.12566382 -0.1805113

linear2.bias f4 [8]
000000 0b bf bb c0 e2 88 24 c0 ea d6 50 c0 ac 3f c8 bf
       -5.8670707 -2.5708547 -3.2631173 -1.5644431
000010 ae ce a0 c0 8c 67 80 c0 31 6e 67 c0 ff 5f 49 c0
       -5.0252295 -4.01264 -3.6161005 -3.1464841

linear3.weight f4 [4, 8]
000000 aa d2 29 bf 1e 2c 36 3e 97 db a2 3e 6c 67 cb 3f
       -0.6633707 0.17790267 0.3180816 1.5890937
000010 72 9a 79 3e e1 19 5e c0 97 7a 8b 3e 07 5f b4 3f
       0.24375322 -3.4703295 0.27241966 1.40915
000020 51 4b b8 3f c2 97 0e be 56 31 0e be 5d 8f b9 bf
       1.4397985 -0.13925079 -0.13886008 -1.4496876
000030 c4 dc 9d bd 98 04 cf 3d a4 77 9b bd 80 15 9a 3f
       -0.07708123 0.10108298 -0.07591179 1.2037811
000040 4a 1b 47 bf bc f3 59 3d aa b4 1f bf 29 c6 02 c0
       -0.77776015 0.05321096 -0.62385046 -2.0433447
000050 bf 0c 20 be ef 67 22 bf 33 c3 54 be 60 f9 c7 3e
       -0.15629862 -0.6343984 -0.20777588 0.39057446
000060 94 5a a5 bf 3f 9a 89 bf b0 39 ac be 62 fc d6 bf
       -1.2918267 -1.0750197 -0.33637762 -1.6795771
000070 00 c1 12 3f 6e e9 ca bf d6 ec d4 bf a1 34 b0 be
       0.57325745 -1.5852487 -1.6634777 -0.34415153

linear3.bias f4 [4]
000000 53 ad 68 43 f2 6f 7b 43 31 70 80 43 91 58 5a 43
       232.67705 251.43729 256.8765 218.34596
